Assets/ML-Agents/Network/Car.onnx (onnx, 447550 bytes, 12 tensors)

action_model._continuous_distribution.log_sigma f4 [1, 2]
0	0xbe133d9b	-0.1437897
1	0xbbcafea7	-0.0061949077

action_model._continuous_distribution.mu.bias f4 [2]
0	0x3cf1bc5f	0.029508768
1	0xbb8b6577	-0.004254039

action_model._continuous_distribution.mu.weight f4 [2, 256]
0	0xbcbded97	-0.02318458
1	0x3b9b9db1	0.004749023
2	0xbd0b092e	-0.0339443
3	0xbcba646f	-0.022752969
4	0xbd6d350f	-0.05791193
5	0x39a58aff	0.00031574813
6	0x3c74438a	0.014908681
7	0xbd553d01	-0.05206013
8	0xbd890854	-0.066910416
9	0xbd130194	-0.035890177
10	0xbd9acac7	-0.07558208
11	0x3aca362f	0.0015427525
12	0x3c30be26	0.010787522
13	0x3ae4058a	0.001739667
14	0x3aa191b7	0.0012326752
15	0x3bbcaf2f	0.005758188
16	0x3b3bccf9	0.0028656109
17	0xbd045b0d	-0.032313395
18	0xbd8714fd	-0.065958
19	0x39d82460	0.00041225832
20	0x3c651a88	0.013983376
21	0xb992d17f	-0.00028003377
22	0x3d026065	0.03183021
23	0xbd738654	-0.059454277
24	0x3c184a9a	0.00929513
25	0xbc8afe55	-0.016966978
26	0xbcd3db91	-0.025861533
27	0xbd430526	-0.04761233
28	0xbd283e33	-0.041074943
29	0x3c6703af	0.014099999
30	0x3b5345a0	0.0032237545
31	0xbbccc955	-0.0062495866
32	0xbd2f5733	-0.04280777
33	0x3c049ec3	0.008094492
34	0xbb0eeeea	-0.0021809884
35	0x3a826798	0.0009949086
36	0x3c148024	0.009063754
37	0xbd254e6a	-0.040357985
38	0xbc39f8e9	-0.011350849
39	0xbbb36500	-0.0054746866
40	0x3b814ed5	0.003946165
41	0x3ce777aa	0.028255302
42	0xbd665d24	-0.05624117
43	0x3a1e8a63	0.0006047843
44	0xbc1a3fc9	-0.009414622
45	0xbca7ed8f	-0.020499019
46	0x3b2519c9	0.002519237
47	0x3d0816a8	0.03322473
48	0xbb3507fc	-0.0027623167
49	0x3b88866b	0.0041664145
50	0x3c1ed0ff	0.009693383
51	0xbbc1d328	-0.0059150644
52	0x3cef7007	0.029228223
53	0x3ca8bdb6	0.020598274
54	0xbc6e9edc	-0.014564242
55	0x3c001919	0.007818484
56	0xbc944606	-0.018099796
57	0xb90c9ea1	-0.00013410534
58	0xbcd42b9e	-0.025899705
59	0xba30ff1f	-0.0006751883
60	0x3c1402f9	0.009033912
61	0x3c561032	0.013065385
62	0xbb479e19	-0.0030459224
63	0xbd86615b	-0.06561538
64	0xbc640b52	-0.013918715
65	0xbb20eea8	-0.0024556313
66	0xbcc2aefb	-0.023765078
67	0xbbf0e590	-0.0073515847
68	0x3bb24017	0.005439769
69	0xbcfd38fe	-0.030910965
70	0xbbd84f7e	-0.006601273
71	0xbc9d9b33	-0.019239044
72	0xbb9e780c	-0.004836088
73	0xbc656154	-0.014000256
74	0xba8894c7	-0.0010420316
75	0xbd4b1f46	-0.04959037
76	0xbd51ad77	-0.05119082
77	0xbcc5949a	-0.02411871
78	0xbc8f4e3c	-0.01749336
79	0x3c7ded08	0.015498407
80	0xbb66907b	-0.0035181332
81	0x3c60d188	0.013721831
82	0x3c76995a	0.01505121
83	0x3c012fd4	0.007884938
84	0x3ca7ff9f	0.020507632
85	0xbd53c679	-0.05170295
86	0xbd073c50	-0.033016503
87	0xbd81370e	-0.06309329
88	0x3a9ec3ad	0.0012112759
89	0xbc1bee31	-0.0095172385
90	0xbb447bbc	-0.0029980978
91	0xbd1e6d79	-0.03867862
92	0xbd707d2a	-0.058713116
93	0x3c4c7371	0.012478695
94	0xbc6ff1ea	-0.014645079
95	0xbd7b67cb	-0.06137828
96	0x3a5ec265	0.0008497595
97	0xbd4697a7	-0.04848447
98	0x3c98b182	0.01863933
99	0xbc58a751	-0.013223485
100	0xbcf4e31a	-0.029893447
101	0x3b495777	0.00307223
102	0xbd66b5d3	-0.056325745
103	0x3acc1d60	0.0015572719
104	0xbd3092cc	-0.043108746
105	0xbd6308a8	-0.055428177
106	0xbd91909c	-0.0710766
107	0xbbe145fd	-0.0068747983
108	0xbd16e10c	-0.036835715
109	0xbd0a37db	-0.033744674
110	0xbc9bc75a	-0.019015957
111	0xbbf8ed52	-0.00759665
112	0xbd48cdda	-0.04902444
113	0xbbdc9fd7	-0.0067329216
114	0xbd5f1d8b	-0.054471534
115	0xbc67143c	-0.014103945
116	0xbd3f48e3	-0.04670037
117	0xbbafafb4	-0.0053615216
118	0xba59e22c	-0.00083115953
119	0xbcdfd9dc	-0.027325563
120	0x3b91d955	0.004450957
121	0xbbd00201	-0.006347895
122	0x3cf281ab	0.029602846
123	0xbcbee01a	-0.02330022
124	0xbc6bf1bb	-0.014400895
125	0xbc3e6ece	-0.011623098
126	0x3ba624fa	0.005070326
127	0xbd5d4751	-0.05402309
128	0xbbf49855	-0.0074644485
129	0xbc6f4308	-0.014603384
130	0x3b2ba9a4	0.0026193643
131	0xbcccb9e4	-0.024990983
132	0x3b154841	0.0022778662
133	0xbcd6f94b	-0.026241919
134	0xbb0ab002	-0.0021162038
135	0xbd428ad7	-0.04749569
136	0x3ca0ac21	0.019613327
137	0xbc3d4c6b	-0.011553864
138	0x3b9227ed	0.004460326
139	0xbd45b8d0	-0.048271954
140	0xbd7a2f15	-0.061080057
141	0xbb32efb2	-0.0027303514
142	0xba712a2a	-0.00091997033
143	0xbca78eca	-0.02045383
144	0xbd17ee34	-0.037092403
145	0x3b516b51	0.0031954835
146	0x3acfdad3	0.0015858061
147	0xbd21c33b	-0.039492827
148	0xbd82c7ab	-0.0638574
149	0xbca9c9dd	-0.020726139
150	0xbd5fff08	-0.054686576
151	0x39a86a92	0.00032122858
152	0xbbac32d4	-0.0052550826
153	0x3a911c73	0.0011071101
154	0x3c29066d	0.010316473
155	0x3bb07b41	0.0053857868
156	0x3ae5f47f	0.0017544179
157	0xbd0be814	-0.034156874
158	0xbb89c1e0	-0.00420402
159	0xbcca30da	-0.024681497
160	0xbcc353c5	-0.023843655
161	0x3cbd11b1	0.023079725
162	0xbcf47a50	-0.02984348
163	0x3c4cf0e6	0.012508607
164	0xbb84f2e2	-0.004057274
165	0xbbf3ef9e	-0.007444336
166	0xbd28f5cc	-0.041250035
167	0xb9bf7943	-0.00036520706
168	0xbc90bb76	-0.017667513
169	0xbd8783ce	-0.066169366
170	0xbbc1815b	-0.005905313
171	0xbb4876b2	-0.0030588326
172	0xbbd21f0f	-0.006412394
173	0x3b588c8d	0.003304276
174	0x3b4d2f58	0.0031308737
175	0x3a07507d	0.0005161835
176	0xbb82fe88	-0.0039976276
177	0xbb7e328f	-0.003878746
178	0xbd71caec	-0.059031412
179	0x3b2c8197	0.0026322359
180	0xbd009282	-0.03138972
181	0x3d05f7c3	0.032706987
182	0xbc969ee7	-0.018386317
183	0x3c8078f0	0.015682667
184	0xbd0f8977	-0.035043206
185	0x3c8b5008	0.017005935
186	0xbc5185bd	-0.012788233
187	0x3ae0eba9	0.0017160076
188	0xbd8f2878	-0.06990141
189	0xbc07a351	-0.008278684
190	0xbd5aefed	-0.053451467
191	0xbbf6a3e4	-0.0075268615
192	0xbcd97fee	-0.02655026
193	0xbd780d1f	-0.06055939
194	0xbd8849ee	-0.06654726
195	0x3c896ae3	0.0167746
196	0xbd771310	-0.060320914
197	0xbd92c6c4	-0.07166818
198	0x3c539de9	0.012916067
199	0x3bf623c1	0.0075115864
200	0xbb87a877	-0.0041399556
201	0x3ac308d6	0.0014879953
202	0x3c9ce26e	0.019150939
203	0xbcd1a5e3	-0.025591796
204	0xbd56e43d	-0.05246376
205	0xbb1e620e	-0.0024167332
206	0xbd5f046c	-0.054447576
207	0x3d2454d4	0.04011996
208	0x3c02ee1c	0.00799134
209	0xbadce049	-0.001685151
210	0x3aeaf846	0.0017926774
211	0x3c57c1e6	0.013168788
212	0xbd6bcd11	-0.057568613
213	0xbcbe1470	-0.023203105
214	0xbc3bcfa4	-0.01146308
215	0xb694e2a9	-4.4371304e-06
216	0x3c33faac	0.010985058
217	0xbc0e2fb2	-0.008678364
218	0xbc0fa48f	-0.008767261
219	0x3ad98fd0	0.0016598646
220	0xbaa7eb77	-0.0012811263
221	0x3d5d726f	0.05406421
222	0xbced98c7	-0.029003514
223	0x3c0af1f6	0.00848054
224	0x3bc659ed	0.0060532005
225	0xba92d2dd	-0.0011201758
226	0x3c83c5bd	0.0160855
227	0x3c824ce8	0.015905812
228	0x3baac83f	0.0052118595
229	0xbd297669	-0.04137269
230	0xbc169920	-0.009191781
231	0xbbade57d	-0.005306898
232	0xbc281794	-0.010259528
233	0xbc719b7d	-0.014746544
234	0x3ca96949	0.020680087
235	0xbbe446e4	-0.0069664586
236	0xbd0bfc06	-0.034175895
237	0x3b60b173	0.0034285455
238	0xbd33b6ac	-0.04387538
239	0x3d113e7a	0.035459973
240	0x3c04f998	0.008116148
241	0x3b8a4748	0.004219923
242	0xbc3b2464	-0.01142225
243	0x3b888fc3	0.0041675284
244	0xbaa6a7a0	-0.0012714751
245	0xbbe4ca57	-0.0069821286
246	0xbc110433	-0.008851099
247	0x3b4a7299	0.003089106
248	0xbce1da09	-0.027569788
249	0x3d60efdc	0.054916248
250	0x3ccbb2ca	0.024865527
251	0x3c828737	0.015933616
252	0x3c0cb9da	0.008589232
253	0xbd150d5c	-0.036389694
254	0xbd6a7198	-0.057237238
255	0xbc547753	-0.012967902

action_model._discrete_distribution.branches.0.bias f4 [3]
0	0x3bc8eadf	0.0061315144
1	0xbbed7059	-0.007246059
2	0x3b953229	0.0045530987

action_model._discrete_distribution.branches.0.weight f4 [3, 256]
0	0x3ce0c561	0.027437868
1	0xbb70ca07	-0.0036741511
2	0x3bb0f98d	0.0054008425
3	0xbcce2519	-0.025164174
4	0xbbb447ab	-0.0055017076
5	0x3ba43e66	0.0050123213
6	0x3c5593e1	0.013035745
7	0x3b5896c8	0.0033048857
8	0x3a6c6c12	0.0009018789
9	0xbc701d30	-0.014655396
10	0xbc961b0e	-0.018323448
11	0xbc4a5213	-0.01234867
12	0xbccc4943	-0.024937278
13	0xbbf32382	-0.0074200043
14	0xba9fb88a	-0.0012185734
15	0xbbbd0f7b	-0.0057696677
16	0xbb91f764	-0.00445454
17	0x3b8ad4b9	0.0042367843
18	0xbb897f77	-0.004196103
19	0xbbcd0d7e	-0.006257712
20	0x3c1510c2	0.009098234
21	0xbc5e0e77	-0.013553253
22	0xbbccd575	-0.006251032
23	0xbc76bc64	-0.015059564
24	0xbbf8ec9f	-0.007596567
25	0xbc592f59	-0.0132559175
26	0xbc02a926	-0.007974898
27	0xbc61510f	-0.013752236
28	0xbc1449fe	-0.009050844
29	0x3a862065	0.0010233043
30	0xbbbe89a5	-0.0058147484
31	0x3ad06ef3	0.0015902206
32	0xbc994d76	-0.018713694
33	0xbb9f6fbd	-0.004865615
34	0xbbad3d6b	-0.0052868626
35	0xbaadcc03	-0.0013259653
36	0x3be4496d	0.006966761
37	0xbc193d36	-0.009352973
38	0x3a64beef	0.0008725961
39	0x3b530b1d	0.003220267
40	0x3c076612	0.008264082
41	0x3bd0fa31	0.0063774814
42	0xbc052489	-0.008126386
43	0x3b9730c3	0.004613967
44	0xbb608501	-0.0034258964
45	0xbc0a7043	-0.008449617
46	0xbb8acf7f	-0.0042361612
47	0x3c3ebb7e	0.011641381
48	0xbc517a71	-0.01278554
49	0xbc32201f	-0.010871916
50	0x3bbe7e86	0.0058134226
51	0x3b9cf5de	0.004790052
52	0x3a451396	0.0007517872
53	0xbabb6ecc	-0.0014299988
54	0xbbe4bcff	-0.006980538
55	0xbb7a63b8	-0.003820641
56	0xbb37d53c	-0.0028050682
57	0x39fc1770	0.00048082648
58	0xbb9edd15	-0.0048481324
59	0xbcac9e52	-0.021071587
60	0xbb333e89	-0.0027350506
61	0xbc21e548	-0.009881325
62	0x3b98f188	0.0046674646
63	0xba50d4fc	-0.00079663075
64	0xbca174de	-0.019709047
65	0x3b5bdaa1	0.003354706
66	0xbc251d67	-0.010077811
67	0xbc29ecc5	-0.010371392
68	0xbc0977f5	-0.008390416
69	0xbbdc49e2	-0.0067226747
70	0x3ab3554f	0.001368204
71	0x3bb5fb19	0.005553615
72	0xbbbb409b	-0.0057144887
73	0xbc1578f2	-0.009123074
74	0xbb4d3d53	-0.003131707
75	0x381c734e	3.7300684e-05
76	0x3be271ac	0.0069105234
77	0xbc9aa8e8	-0.018879369
78	0xbc5cd546	-0.013478583
79	0x3c801e4d	0.015639449
80	0xbba8a961	-0.0051471447
81	0x3bbf63b4	0.005840743
82	0xbc0c43d4	-0.008561093
83	0xbc4dedbc	-0.012568887
84	0x3c0d9651	0.008641795
85	0xbc9f767a	-0.019465674
86	0xbb1fa3b3	-0.0024359047
87	0xbc07f874	-0.008298982
88	0xba4978a9	-0.0007685521
89	0xbc0bf5c4	-0.008542482
90	0xbbecf566	-0.007231402
91	0xb9176c0d	-0.00014440734
92	0xbb72860e	-0.0037006172
93	0x3bbac546	0.0056997864
94	0xbbbf04c6	-0.0058294265
95	0xbbf2b2b2	-0.007406556
96	0x3c1e38bc	0.009657081
97	0xb9b2f2e9	-0.00034131788
98	0xbc07f104	-0.008297209
99	0x3a884679	0.0010396979
100	0x3bebaadb	0.0071919984
101	0xbbe2d57e	-0.006922423
102	0x3c2ed4f2	0.010670887
103	0xbba43150	-0.0050107613
104	0xbc9cab93	-0.019124782
105	0x3c37ad72	0.011210786
106	0xbc099b6c	-0.008398872
107	0xbabe9bac	-0.0014542243
108	0xbcd6015d	-0.026123697
109	0xbbb0087b	-0.0053721047
110	0x3abca862	0.0014393444
111	0xbb41a455	-0.0029547412
112	0xbc10b010	-0.008831039
113	0x3c843187	0.016136898
114	0xbc5abf04	-0.013351206
115	0xbbe53893	-0.0069952696
116	0xbc4e62e9	-0.012596824
117	0x3a9347a9	0.0011236566
118	0xbaa555a9	-0.001261403
119	0x3c8575da	0.016291548
120	0xbc0f8340	-0.00875932
121	0x3c298d72	0.010348665
122	0x3a580190	0.0008239979
123	0xbc7f6bd9	-0.015589678
124	0x3b8f4c4f	0.0043731104
125	0x3bcd61ec	0.0062677767
126	0x3b9779e6	0.0046226857
127	0xbc74183d	-0.014898357
128	0xbc16c5a0	-0.009202391
129	0xbb6e4898	-0.0036359187
130	0x3c1fc865	0.009752368
131	0x3b8dac91	0.00432355
132	0xbc498235	-0.01229911
133	0x3bdcce7b	0.0067384816
134	0x3b046636	0.0020202524
135	0xbc8a04ea	-0.016848046
136	0x3bfacc70	0.0076537654
137	0xbb3300c1	-0.0027313682
138	0x3c1d7590	0.009610549
139	0x3b31d9dd	0.0027137913
140	0xb9f6d491	-0.0004707915
141	0xbc8568ba	-0.01628529
142	0x3c563fa1	0.013076694
143	0x3b06e2e4	0.0020582015
144	0x3c27c767	0.010240412
145	0xbb6658fb	-0.0035148251
146	0x3b86b31a	0.004110706
147	0xbbd51697	-0.006502937
148	0xbc567147	-0.013088531
149	0x3bf18b23	0.0073713227
150	0xb974a30e	-0.00023330396
151	0x3c2a5e58	0.01039847
152	0xba40f9ee	-0.0007361461
153	0xbaae2c5b	-0.0013288365
154	0xbba55059	-0.0050449786
155	0xbd0829a9	-0.033242855
156	0xbba0a797	-0.0049027908
157	0xbc67db50	-0.014151409
158	0xbc0a0a20	-0.008425266
159	0xbc5ab19c	-0.013348009
160	0xbb37b29e	-0.0028030048
161	0x3bdbeefa	0.006711838
162	0xbc486c45	-0.012232845
163	0xbbf84ce3	-0.007577525
164	0xbce576f7	-0.028010828
165	0xbb9e6787	-0.0048341188
166	0x3c4069c7	0.011743969
167	0x3b4fac91	0.003168855
168	0x3c33819f	0.010956197
169	0xbc0160cb	-0.007896612
170	0xbc49b459	-0.012311065
171	0xbade0475	-0.0016938584
172	0xbb32b630	-0.0027269237
173	0x397f1cfa	0.0002432949
174	0x3c25063e	0.010072289
175	0xbc4cc649	-0.012498447
176	0xb98dd4d8	-0.00027052197
177	0xbbd92f51	-0.006627955
178	0x3b54da2b	0.003247867
179	0x3ae47ddc	0.0017432529
180	0xbcac961b	-0.02106767
181	0x3b9d1a17	0.00479437
182	0xbc0e8577	-0.008698813
183	0xbcd224fb	-0.0256524
184	0xbb8bef77	-0.00427049
185	0x3ba842dd	0.005134924
186	0xbc26685c	-0.010156717
187	0x3b8950db	0.004190547
188	0xbc534897	-0.012895725
189	0x3b9338f8	0.004492875
190	0x3c2d9824	0.010595355
191	0x3bba18f2	0.0056792432
192	0xbc3c866f	-0.011506661
193	0xbc713d37	-0.014724067
194	0xbc5102df	-0.012757032
195	0xbbb0228e	-0.005375213
196	0xbca1a4de	-0.019731935
197	0xbc49ed26	-0.012324607
198	0xb9a9da66	-0.0003239691
199	0xbc3c1bb3	-0.011481213
200	0x3be22520	0.0069013983
201	0x3bee204d	0.007267034
202	0xbc684bb0	-0.014178202
203	0xbc5ec7a7	-0.0135974055
204	0xbae85877	-0.001772656
205	0xba9e6a41	-0.001208611
206	0xbcf1b364	-0.029504485
207	0x3bf78bfe	0.00755453
208	0x3c1753cf	0.00923629
209	0x3cd2b754	0.025722183
210	0xbb1aacbd	-0.0023601495
211	0x3be4dc25	0.006984251
212	0xbc8000de	-0.015625414
213	0x3bca1622	0.006167189
214	0xbbb020df	-0.0053750123
215	0x3b9ed4bc	0.0048471373
216	0xbabea493	-0.0014544897
217	0xbaba3c0d	-0.001420857
218	0xbbffcf50	-0.007806696
219	0xbc2dd63f	-0.010610162
220	0x3c20b9e1	0.009809942
221	0x388b4f9c	6.642865e-05
222	0x3c3edb3f	0.011648952
223	0xbba97728	-0.0051716752
224	0x3c2182cd	0.0098578455
225	0x3c061b16	0.008185169
226	0xbc2f0d55	-0.010684331
227	0xba9d77db	-0.0012013869
228	0x39994ef6	0.00029241265
229	0x39fdebd0	0.00048431614
230	0x3bdcd710	0.0067395046
231	0x3bd2fdfe	0.0064389696
232	0xb9de8999	-0.00042445658
233	0xb9ea203c	-0.00044655974
234	0x3b9363b9	0.004497972
235	0xbc51d267	-0.0128065115
236	0xbadef3f2	-0.0017009957
237	0x3b8f212d	0.0043679685
238	0xbc34980a	-0.011022577
239	0x3ba31f54	0.0049781
240	0xbb1bdb26	-0.0023781746
241	0x3c717209	0.014736661
242	0x3c821f5e	0.015884098
243	0x3a874e40	0.0010323003
244	0xbc86c5e1	-0.016451778
245	0xbb634da2	-0.0034683724
246	0xbb56cc7e	-0.0032775695
247	0x3b35a797	0.00277183
248	0xbc087e84	-0.008330945
249	0xbae48fc2	-0.0017437863
250	0xbd13ce00	-0.03608513
251	0x3b2c4c61	0.0026290643
252	0x3b80a40b	0.0039258054
253	0xbc0b3c18	-0.008498214
254	0xba9b9a18	-0.0011871485
255	0x3b7981b2	0.003807169

action_model._discrete_distribution.branches.1.bias f4 [3]
0	0x3bed894d	0.0072490335
1	0xbc43d1e6	-0.011951899
2	0x3bd50bb9	0.0065016416

action_model._discrete_distribution.branches.1.weight f4 [3, 256]
0	0xbb93d328	-0.004511256
1	0xbc19ee4d	-0.009395194
2	0x3b38c425	0.0028193083
3	0xbca7c1df	-0.020478187
4	0xb9abc3d5	-0.00032761568
5	0xbbfa6964	-0.007641958
6	0xbbfa46cd	-0.0076378346
7	0x3ca29ae9	0.019849258
8	0x3c7bb939	0.015363985
9	0xbbb7a23d	-0.005604057
10	0xba98ddff	-0.001166284
11	0xbc074b57	-0.0082577085
12	0xbc8a921b	-0.016915372
13	0x3b7e7757	0.0038828456
14	0xbb2e79e3	-0.0026622943
15	0x3b56da3f	0.0032783893
16	0x3acb71f0	0.0015521627
17	0xbbca91a4	-0.0061819125
18	0xbc6b130c	-0.014347803
19	0x3c8c0c7b	0.017095795
20	0x3c2fb2c2	0.0107237715
21	0x3c833992	0.016018663
22	0x3971719b	0.00023025872
23	0xbcbf1a9f	-0.023328124
24	0x3c4ef485	0.01263154
25	0xbc0caa69	-0.008585551
26	0x3bd6c742	0.006554515
27	0xbc9a8399	-0.018861579
28	0xbbd4052a	-0.006470342
29	0xbaa30837	-0.0012438361
30	0x3bff165a	0.007784647
31	0x3bc325f8	0.005955454
32	0xbcf7982c	-0.030223928
33	0x3ba55329	0.005045314
34	0xbb6a8008	-0.003578188
35	0x3a23edaa	0.0006253371
36	0x3b5a26b6	0.0033287234
37	0xbba420b1	-0.00500878
38	0xbbe46fc9	-0.0069713336
39	0x3c28b187	0.010296232
40	0xba9e4a0d	-0.0012076512
41	0x3b2e3077	0.002657918
42	0xbb3e8bf3	-0.0029075115
43	0x3acf9cae	0.0015839541
44	0x3ca7cc7c	0.020483248
45	0xbb71decc	-0.003690648
46	0x3c0e4233	0.008682775
47	0x3b91eb79	0.0044531194
48	0xbb70354c	-0.003665286
49	0x3b834cc3	0.0040069534
50	0x3b1c04e8	0.0023806635
51	0xbadb80ec	-0.0016746796
52	0x3b4ea1fa	0.003152965
53	0x3c2f9fe1	0.01071927
54	0xbc664901	-0.014055491
55	0x3ca4f4f7	0.02013634
56	0xb88475f4	-6.316221e-05
57	0x3bedec32	0.0072608227
58	0x3bb5cc47	0.0055480334
59	0x3bb62614	0.0055587385
60	0x3a97a157	0.0011568469
61	0xbb928b18	-0.0044721477
62	0xba83c49b	-0.00100531
63	0xbc2939e0	-0.01032874
64	0x3c91606a	0.01774617
65	0x3b9153aa	0.0044350224
66	0xbbc0a2c4	-0.005878778
67	0xbbab23b0	-0.00522276
68	0x3c66f8a1	0.014097364
69	0xbb4beba9	-0.0031115806
70	0xbb0ddd83	-0.0021646924
71	0x3cc0ec5e	0.023550209
72	0x3c1c7fe7	0.009551979
73	0xb9c6237b	-0.00037791938
74	0x3d11d451	0.03560287
75	0x39850370	0.00025370298
76	0xbc5881fa	-0.013214583
77	0xbad54831	-0.0016272125
78	0x3c9d17aa	0.019176323
79	0x3c107566	0.0088170525
80	0x3c367ecb	0.011138628
81	0x3ada6ceb	0.001666454
82	0x3bb23a17	0.0054390538
83	0xbbc12268	-0.005893994
84	0xba14def9	-0.00056789775
85	0xbc77bd96	-0.015120884
86	0xbc6c9d27	-0.014441765
87	0x3c014c31	0.007891701
88	0xbc5c5966	-0.013449049
89	0xbb097c1d	-0.0020978518
90	0xbc4c427f	-0.012467026
91	0xbc99d9b6	-0.01878057
92	0xbb358553	-0.0027697876
93	0xbbb7acc4	-0.005605312
94	0x3bcd0e03	0.006257774
95	0xbbba588d	-0.0056868256
96	0x3b2f2f45	0.0026731056
97	0xbc140cda	-0.009036267
98	0x3b065389	0.0020496568
99	0x3b039e79	0.002008347
100	0x3b040ca9	0.0020149148
101	0x3b81e6b9	0.003964272
102	0xbc326f07	-0.010890729
103	0x3c3b6abc	0.011439022
104	0xbb72a983	-0.0037027306
105	0x3c0a1e6c	0.008430105
106	0xbc2af28b	-0.010433803
107	0xba5dba39	-0.00084582303
108	0x3c7ca261	0.0154195735
109	0xbb543d35	-0.0032385115
110	0x3bdd1d2d	0.006747863
111	0x3aa037fc	0.0012223716
112	0xbc41a64a	-0.011819432
113	0xbbb6454f	-0.0055624614
114	0xbc201cc2	-0.009772481
115	0xbc4a4a68	-0.012346841
116	0xbcf11362	-0.029428188
117	0x3c38d4f9	0.011281245
118	0x3c912cf6	0.017721634
119	0x3b334baf	0.0027358343
120	0x3bcd147c	0.0062585454
121	0xbace2e01	-0.0015730263
122	0xbc1d470c	-0.009599458
123	0xbc365995	-0.011129756
124	0xbbf7f053	-0.0075664907
125	0x3bccb460	0.0062470883
126	0x3c93018c	0.017945074
127	0xbbfb507f	-0.007669508
128	0x3ccc3d7c	0.024931662
129	0x3c50f877	0.012754551
130	0x3c4825df	0.01221606
131	0x3c64820e	0.013947023
132	0x3ae701cc	0.0017624437
133	0xbb78fe8d	-0.003799352
134	0x3b9f1309	0.004854564
135	0x3b954423	0.0045552417
136	0xba14eacc	-0.00056807394
137	0x3c437cbf	0.011931597
138	0xbacacf5f	-0.0015473178
139	0xb97ac60e	-0.00023915639
140	0xbc0898cf	-0.008337214
141	0xbbe21888	-0.006899897
142	0x3c1a41d0	0.009415105
143	0xbbc19e96	-0.0059087975
144	0xbbce3b26	-0.006293672
145	0x3c6297fe	0.013830183
146	0xbc5e35a2	-0.013562592
147	0xbad82147	-0.001648941
148	0xbbe9b803	-0.0071325316
149	0xbc394268	-0.011307336
150	0xbc4fb407	-0.012677199
151	0xbb35af4b	-0.002772289
152	0x3b550394	0.0032503353
153	0xbb42287d	-0.0029626184
154	0x3c3dfc19	0.011595749
155	0x3ad64788	0.0016348222
156	0x3c3a381c	0.011365917
157	0x3be8f3c8	0.007109139
158	0x3c1a2b8a	0.009409795
159	0x3982068b	0.00024800407
160	0x3bb9dd1a	0.0056721093
161	0xbb13990c	-0.0022521643
162	0xbc7f0ba2	-0.015566738
163	0x3b257f1f	0.0025252772
164	0x3c540585	0.012940769
165	0xbb5bf2d7	-0.0033561492
166	0x3b21ec45	0.0024707478
167	0x3a9f874a	0.0012171057
168	0xbc6d97e6	-0.014501547
169	0xbbc69481	-0.0060601835
170	0xbab4f00f	-0.0013804453
171	0x3b856d49	0.0040718657
172	0x3bc3baff	0.0059732194
173	0x3bfd40c3	0.0077286675
174	0x3b39c23d	0.0028344535
175	0x3a04fc74	0.0005073019
176	0x3ba2a4b2	0.004963481
177	0x3c864911	0.016392263
178	0xbb1b0670	-0.002365496
179	0x3c25d4b2	0.010121511
180	0xba989b26	-0.0011642918
181	0x3c71b27b	0.014752026
182	0xbc186a96	-0.009302756
183	0xbb4e3e56	-0.003147026
184	0x3bb8404b	0.0056228987
185	0xbb5898ea	-0.0033050128
186	0x3b0817cd	0.002076614
187	0x3c4f97f3	0.012670505
188	0x3b86eb5d	0.004117413
189	0x3b38c2e9	0.0028192347
190	0xbc08ab6b	-0.0083416505
191	0xbc0e65db	-0.008691276
192	0xbb9c1658	-0.004763406
193	0xbc62972e	-0.013829989
194	0x3bcd36b3	0.006262624
195	0x3bc07175	0.0058729
196	0x3a474faa	0.00076031184
197	0xbbcdeb39	-0.0062841442
198	0x3bc22a79	0.0059254733
199	0x3bfb5c0c	0.007670885
200	0x3cb53a88	0.022122636
201	0x3ba5e76e	0.005062989
202	0x3b26fef8	0.0025481563
203	0x3a591ab1	0.00082818704
204	0xbc809a89	-0.015698688
205	0x3c216224	0.009850059
206	0x3c716f57	0.014736018
207	0x3c32f9ba	0.010923797
208	0xbb9d1c2a	-0.004794617
209	0x3c93bd34	0.018034555
210	0xbb9effaa	-0.004852255
211	0x3bcb74d8	0.006208997
212	0xbbb2d803	-0.0054578795
213	0xbbf53b12	-0.0074838484
214	0x3c8808f5	0.016605834
215	0x3ba30366	0.0049747704
216	0x3c0fc8ef	0.008775934
217	0xbc432eec	-0.0119130425
218	0xbaacd77b	-0.0013186777
219	0x3c8f3bb3	0.017484521
220	0x3b0174bd	0.001975342
221	0xbbbe32c7	-0.005804393
222	0x39c20532	0.00037006434
223	0xbb79d2aa	-0.003811995
224	0x3bf7a103	0.007557036
225	0xbb1e4b30	-0.0024153702
226	0xbbed546f	-0.0072427313
227	0x3b46105e	0.0030222158
228	0x3bf523b6	0.0074810637
229	0xbb324ed1	-0.0027207623
230	0x3b0978d2	0.0020976556
231	0xbc225260	-0.009907335
232	0x3c7ac6bb	0.01530617
233	0xbade4223	-0.0016956966
234	0xba5efdcf	-0.00085064484
235	0x3b9ef8c7	0.004851434
236	0xbca196f8	-0.019725308
237	0x3986ecc9	0.0002573489
238	0xbb975ee4	-0.004619466
239	0xbc70bf61	-0.014694066
240	0xba8e4b33	-0.0010856151
241	0xb9c8d08a	-0.00038302346
242	0xbc9976a6	-0.018733334
243	0x3c0155ec	0.0078940205
244	0x3b5bc3ca	0.0033533447
245	0xba7407b8	-0.00093090115
246	0x3b6b5414	0.0035908269
247	0xbb5f8fe1	-0.0034112858
248	0x3aefbc50	0.0018290374
249	0x3a257c1f	0.0006312746
250	0x3bce8e19	0.0063035605
251	0x3a3c7452	0.0007188964
252	0xbc05b409	-0.0081605995
253	0xbb5a0089	-0.003326448
254	0x3a4c941d	0.0007804053
255	0x3ba02e1c	0.004888309

discrete_action_output_shape f4 [1, 2]
0	0x40400000	3.0
1	0x40400000	3.0

network_body._body_endoder.seq_layers.0.bias f4 [256]
0	0xbbf0032c	-0.007324597
1	0x3c724ccc	0.014788818
2	0x3c523a15	0.012831231
3	0x3c88897b	0.016667118
4	0xbbc56a38	-0.006024625
5	0x3bd6a3de	0.006550296
6	0xbc1b732a	-0.0094879065
7	0xbc8b1608	-0.016978279
8	0xbbf05895	-0.0073347786
9	0xbc1e7c35	-0.009673168
10	0xbc67600b	-0.0141220195
11	0x3c00dcdb	0.007865156
12	0xbc5b52b7	-0.01338642
13	0xbbf74488	-0.0075460114
14	0xbc83a129	-0.016068058
15	0xbbb75877	-0.0055952626
16	0x3cb2ed76	0.021841746
17	0xbc9b7f03	-0.018981462
18	0xbc07fa91	-0.008299486
19	0x3ba91ee7	0.0051611545
20	0x3c8478ae	0.016170826
21	0x39f77f6c	0.00047206448
22	0x3c5837f6	0.013196936
23	0x3c7ae840	0.015314162
24	0xbcbab2c3	-0.022790318
25	0xbc9d6f87	-0.01921822
26	0x3c3515b1	0.011052535
27	0xbb70d233	-0.0036746382
28	0x3c2706a7	0.010194457
29	0x3c85bbcc	0.0163249
30	0xbb93d643	-0.004511626
31	0xbc8eccd8	-0.017431661
32	0xbcf27b16	-0.029599708
33	0x3c2131e0	0.009838551
34	0xbcaa28e9	-0.02077146
35	0x3b189e67	0.0023287775
36	0xbb8d999a	-0.0043212892
37	0xbc62a56c	-0.013833385
38	0x3bd22891	0.0064135273
39	0xbc880539	-0.016604053
40	0xbc103b21	-0.00880316
41	0xbced9316	-0.0290008
42	0xbcb97f40	-0.022643685
43	0xbb8e8a7d	-0.004350005
44	0xbb0750f0	-0.0020647608
45	0xbbfeed9d	-0.0077797906
46	0xbb82dde4	-0.0039937366
47	0xbc8944a4	-0.016756363
48	0xbc685328	-0.014179982
49	0xbbd55d49	-0.0065113646
50	0xbb99b363	-0.004690574
51	0xbb2055bf	-0.002446517
52	0xbcadd59e	-0.021220025
53	0xbbfa4b31	-0.007638358
54	0x3c07b029	0.008281746
55	0xbcaea41d	-0.02131849
56	0xbb637103	-0.0034704811
57	0xbccb424a	-0.024811883
58	0xb9c6e371	-0.0003793496
59	0xbc088fe9	-0.008335092
60	0x39b5b486	0.0003465751
61	0xbba26647	-0.00495604
62	0xbbf9b35a	-0.0076202573
63	0xbbdc8221	-0.0067293798
64	0xb94bc44d	-0.00019432716
65	0xbd027384	-0.031848446
66	0x3b7ae378	0.0038282555
67	0x3c754012	0.014968889
68	0x3beb4724	0.0071801115
69	0xbc389171	-0.011265145
70	0x3acadc69	0.0015477064
71	0xbc5a4b26	-0.013323581
72	0xbc402bcf	-0.011729195
73	0x3cef9e7b	0.029250374
74	0xbc9329d5	-0.017964283
75	0xbcc55db6	-0.024092536
76	0x3bd8acab	0.0066123805
77	0xbc30233e	-0.01075059
78	0xbcadb640	-0.021205068
79	0x3c630253	0.013855535
80	0xbd11b5c0	-0.03557372
81	0xba51f564	-0.00080092833
82	0xbc324bab	-0.010882298
83	0x3c0bbf31	0.00852947
84	0xbcdb71c3	-0.026787644
85	0xbc9990c6	-0.018745791
86	0x3bb394ce	0.0054803854
87	0xbc743741	-0.014905752
88	0x3cde8312	0.027162109
89	0x3b332df9	0.0027340634
90	0xbc6e2a87	-0.0145365065
91	0x3c98a8d4	0.018635191
92	0xbd26b811	-0.040702883
93	0x3cb680c6	0.0222782
94	0x3c8e149e	0.017343815
95	0xbbb09535	-0.0053888806
96	0xba9cc8a1	-0.0011961648
97	0xbc1a9a44	-0.009436194
98	0x3c07c899	0.008287572
99	0xbc52068b	-0.012818943
100	0xbabf83e8	-0.0014611455
101	0x3c9e7460	0.019342601
102	0xbc5c8c84	-0.013461236
103	0xbc0bc5e0	-0.008531064
104	0xbb9323b0	-0.0044903383
105	0xbc823227	-0.015893055
106	0x3cc42f95	0.02394847
107	0x3b4923ce	0.0030691507
108	0x3cf6c19d	0.030121619
109	0xbd9b7233	-0.07590141
110	0xbc7a6db1	-0.0152849415
111	0xbcca78e3	-0.024715846
112	0x3cde5ba5	0.027143309
113	0xbbab5216	-0.0052282913
114	0xbc6333ac	-0.0138673
115	0xbb7c388e	-0.0038485858
116	0xbcae57fa	-0.021282185
117	0x3c12a3f8	0.008950226
118	0x3c1917b3	0.009344029
119	0x3c2bc9b3	0.010485101
120	0xbc97a68d	-0.018512035
121	0xbcf4f9c5	-0.029904256
122	0xbc95f8f1	-0.018307181
123	0xbc5a94f3	-0.013341176
124	0x3b4978e9	0.0030742234
125	0xbb6e5583	-0.0036366887
126	0x3d276325	0.040866036
127	0xbb8f7146	-0.004377517
128	0x3c531dfd	0.012885568
129	0xbc1f0fbe	-0.009708343
130	0xbcefe9cc	-0.029286288
131	0xbcc04857	-0.023471994
132	0xbc960976	-0.018315058
133	0x3c14d3b3	0.009083676
134	0x3ccf5850	0.025310665
135	0x3c431037	0.011905721
136	0x3d97eed2	0.07418598
137	0x3c6e12cf	0.0145308515
138	0x3c0e126f	0.008671387
139	0x3bdd57f7	0.006754871
140	0xbc9ee02c	-0.019394003
141	0xbc9e0ddb	-0.019293716
142	0x3b272c35	0.0025508527
143	0x3cbb1e2f	0.022841541
144	0x3c8cfb6c	0.017209731
145	0xbc4f6822	-0.012659105
146	0x3c8d93cf	0.017282395
147	0xbb4b17f7	-0.0030989626
148	0x3b89e873	0.0042086183
149	0xbcd6f649	-0.026240485
150	0x3cdd6b58	0.027028725
151	0xbd051d5c	-0.032498702
152	0xbc80dfa6	-0.015731644
153	0x3bad67af	0.005291901
154	0xbc01284d	-0.007883144
155	0xbce15760	-0.027507484
156	0xbc92c3cd	-0.01791563
157	0x3c78663c	0.015161093
158	0x3d115523	0.035481583
159	0xbb4116d7	-0.0029463076
160	0xbc04dd99	-0.008109474
161	0xbc8c9407	-0.017160429
162	0xbba5997d	-0.0050536976
163	0x3ceaac75	0.028646687
164	0x3b410864	0.0029454464
165	0x3b8b0290	0.004242249
166	0xbb4e8e71	-0.0031518007
167	0xbbf559de	-0.0074875196
168	0xbbbe9b34	-0.0058168415
169	0xbb9df4aa	-0.004820426
170	0xbcfb87c9	-0.030704396
171	0x3bb154f4	0.0054117385
172	0x3a0723f5	0.00051551993
173	0xbb0876e7	-0.0020822824
174	0x3ce4ad79	0.02791475
175	0xbca18b7c	-0.019719832
176	0x3d122cd4	0.035687283
177	0xbcc925b5	-0.024554113
178	0xbcb27d71	-0.02178833
179	0x3bfa3cfb	0.007636664
180	0x3b9330a3	0.004491882
181	0x3c98052d	0.018557156
182	0xbc3e6660	-0.011621088
183	0xbce5fd42	-0.028074864
184	0xbc34efec	-0.01104353
185	0x3aa80124	0.0012817723
186	0xbc8663c9	-0.016405003
187	0xbb97d33b	-0.004633335
188	0xbbbcae61	-0.0057580923
189	0xbcba4862	-0.022739593
190	0xbd0526e9	-0.03250781
191	0x3aebeac3	0.0017999042
192	0xbd0500f7	-0.032471623
193	0xbc8136dd	-0.015773231
194	0xbc57ffb6	-0.013183525
195	0x3c0629b3	0.008188653
196	0x3aafa760	0.0013401322
197	0xbad91a09	-0.0016563545
198	0xbcd25f07	-0.025680078
199	0xbb4098e4	-0.0029388005
200	0xbc90a430	-0.017656416
201	0xbc67e0e3	-0.014152738
202	0xb91f67af	-0.00015202047
203	0x3cce93f4	0.025217034
204	0xbc2afe3c	-0.010436591
205	0xbc9e4d19	-0.019323872
206	0xbc5be558	-0.013421379
207	0xbc5d74e2	-0.013516637
208	0x3c232942	0.009958567
209	0x3b8fd880	0.0043898225
210	0xbc202926	-0.009775436
211	0xbc70a352	-0.014687376
212	0x3bd69d9c	0.00654955
213	0xbc087c1f	-0.008330374
214	0x3d266d86	0.040631793
215	0x3a48d90d	0.00076617376
216	0x3b9e8889	0.0048380536
217	0xbcba9c15	-0.022779504
218	0xbc8433b6	-0.016137939
219	0x3c3e8604	0.0116286315
220	0x3cfba5b9	0.030718671
221	0xbc8a0ddf	-0.016852317
222	0x3c8d61d2	0.017258558
223	0xbc7a4175	-0.015274395
224	0xbc72a784	-0.014810447
225	0xbbfce799	-0.0077180383
226	0xbc4fd7a4	-0.01268569
227	0xbbd3f17c	-0.006467996
228	0xbcd06de6	-0.025443029
229	0xbb86a45c	-0.0041089486
230	0xbb873da9	-0.0041272235
231	0xbc0dfffe	-0.00866699
232	0x3bb64ad6	0.0055631204
233	0x39069fca	0.00012838762
234	0xbc57e223	-0.013176474
235	0xba870e2d	-0.0010303907
236	0xbc8fe753	-0.017566359
237	0xbb97a769	-0.004628111
238	0xbc67757c	-0.014127132
239	0x39ffb8cd	0.00048775077
240	0xbc7f96f8	-0.015599959
241	0xbcf904e6	-0.030397844
242	0x3d0a4285	0.033754844
243	0xbc6386e1	-0.013887138
244	0x3c3bc601	0.011460782
245	0xbc0836c4	-0.008313838
246	0x3a0baa9f	0.0005327854
247	0xbc8d6800	-0.017261505
248	0xbc93535b	-0.017984083
249	0x3ca04838	0.019565687
250	0xbbd89913	-0.0066100447
251	0x3c02b539	0.007977777
252	0xbc1f8c95	-0.009738107
253	0xbcf4ffa9	-0.029907065
254	0x3ab09fef	0.0013475398
255	0xb8e0b6ad	-0.00010715178

network_body._body_endoder.seq_layers.0.weight f4 [256, 167]
0	0x3de77d56	0.11303203
1	0xbcc0fd06	-0.023558151
2	0xbde625a1	-0.11237646
3	0xbd186428	-0.03720489
4	0xbce74b66	-0.028234195
5	0x3c4bcf8b	0.012439619
6	0x3d1c0c7e	0.03809785
7	0x3d706ffc	0.058700547
8	0xbddcb818	-0.107773006
9	0xbd9e8870	-0.07740867
10	0xbbb88db6	-0.0056321276
11	0x3dba87cc	0.091079324
12	0x3dd5960c	0.1042901
13	0xbc932935	-0.017963985
14	0x3dd3081d	0.10304282
15	0xbd209f6a	-0.03921453
16	0xbce8563b	-0.02836143
17	0xbd1d27c0	-0.038367987
18	0xbdafca2f	-0.08583485
19	0x3dc93518	0.0982458
20	0x3d0f5eb6	0.035002433
21	0xbd9334d3	-0.0718781
22	0x3d1e72d2	0.03868372
23	0xba3daf1d	-0.0007235872
24	0x3d49d65a	0.049276687
25	0x3c523722	0.0128305275
26	0xbdb85a46	-0.09001593
27	0xbd31066b	-0.04321901
28	0xbc630829	-0.013856926
29	0xbe0476f9	-0.1293601
30	0x3df73af2	0.1207179
31	0x3db25adb	0.087087356
32	0x3d6e5957	0.05819067
33	0xbd83de3a	-0.06438871
34	0xbe05af4b	-0.1305515
35	0xbdaf3688	-0.08555323
36	0xb95c70c6	-0.00021022846
37	0x3de4b5c2	0.1116748
38	0xbe2bd3f1	-0.16780068
39	0xbca6b56a	-0.020350177
40	0xbb11ddb8	-0.0022257399
41	0xbcf2ceab	-0.029639563
42	0x3d43b5a1	0.047780637
43	0x3dffb066	0.12484817
44	0xbd1ef45e	-0.038807265
45	0x3db1111e	0.08645843
46	0xbdb26b3d	-0.0871186
47	0x3c8801d6	0.016602438
48	0xbd2bfbd0	-0.041988194
49	0x3da5b886	0.08091836
50	0xbd1f933f	-0.038958784
51	0xbac76caa	-0.001521488
52	0xbd8c0189	-0.0683623
53	0xbdb84154	-0.08996835
54	0xbd809690	-0.062787175
55	0x3dfa3cb5	0.1221861
56	0xbb20715a	-0.0024481625
57	0xbe02f450	-0.1278851
58	0x3bf4928d	0.0074637593
59	0x3cc90c2e	0.02454194
60	0x3e471588	0.19441807
61	0xbdc889f9	-0.09791941
62	0xbd95f18b	-0.07321461
63	0xbdce23db	-0.10065433
64	0xbccd75c1	-0.025080564
65	0x3da33fe4	0.079711705
66	0x3d67d7d0	0.0566023
67	0x3ca06fd7	0.01958458
68	0xbe029b41	-0.12754537
69	0x3cb5cb87	0.022191776
70	0x3b6446d4	0.0034832256
71	0xbddff0b3	-0.109345816
72	0xbd844282	-0.06457998
73	0x3d447025	0.04795851
74	0x3cc842ef	0.024445979
75	0x3d3b88cf	0.045784768
76	0x3e479012	0.19488552
77	0xbde79547	-0.11307769
78	0xbdf1bbcf	-0.118034
79	0xbda1ad52	-0.07894386
80	0xbe297e6a	-0.1655213
81	0xbcea3aac	-0.02859243
82	0x3d05d2fe	0.03267192
83	0xbd2f654e	-0.04282122
84	0xbc599abb	-0.0132815195
85	0xbd00e52a	-0.031468548
86	0x3dac8041	0.084229
87	0x3c6ef4fa	0.014584774
88	0xbd12e28f	-0.035860594
89	0x3de2818c	0.11059865
90	0xbd841623	-0.06449535
91	0xbc0dc57a	-0.008653039
92	0x3d8d37e8	0.06895429
93	0xbd017e39	-0.031614516
94	0x3de010be	0.10940693
95	0xbd44d69d	-0.048056234
96	0xbc866d0a	-0.016409416
97	0x3de35ed4	0.111020714
98	0x3bb451ef	0.0055029313
99	0x3e4148a5	0.18875368
100	0xbc32019c	-0.0108646415
101	0xbc909c30	-0.017652601
102	0x3d024a66	0.031809233
103	0x3d7f7e7a	0.062376477
104	0xbc2a053f	-0.010377227
105	0x3cf1b508	0.029505268
106	0x3dc02878	0.09382719
107	0xbd8f8a79	-0.070088334
108	0x3c7cb488	0.015423901
109	0x3cbab975	0.02279351
110	0xbbe2d741	-0.006922633
111	0xbd8b717f	-0.06808757
112	0xbde2b390	-0.11069405
113	0x3c62cbe7	0.013842559
114	0xbd236065	-0.03988685
115	0x3de25c8b	0.110528074
116	0x3e021c71	0.12706162
117	0x3cbf2925	0.023335049
118	0xbc5e6dae	-0.013575954
119	0x3d90ab27	0.07063895
120	0x3d031463	0.032001864
121	0x3d8f9e57	0.07012623
122	0xbc3f8d2c	-0.011691373
123	0xbe4236c9	-0.18966211
124	0x3ddc1d8d	0.10747824
125	0x3c30eb85	0.01079834
126	0x3d5ddcb4	0.054165557
127	0x3ac68b20	0.0015147664
128	0x3d949955	0.07255808
129	0xbcd919f8	-0.02650164
130	0x3d7df1d3	0.0619982
131	0xbe130824	-0.14358574
132	0xbd4eabc6	-0.050456785
133	0x3d64e961	0.05588663
134	0x3d586ce2	0.052838214
135	0xbd97286a	-0.07380755
136	0xbd0cd9a2	-0.03438724
137	0xbc76a45c	-0.015053835
138	0xbdb2783a	-0.08714338
139	0x3d81a25d	0.063297965
140	0x3da674c3	0.08127739
141	0x3d681f79	0.05667064
142	0x3d003cfe	0.031308167
143	0x3d143c47	0.036190297
144	0x3cf4bad8	0.02987425
145	0xbdaa5716	-0.083173916
146	0xbd1ca2ac	-0.038241073
147	0x3c8aa1dd	0.016922886
148	0xbc852019	-0.016250657
149	0x3ca0eaa4	0.019643135
150	0xbd9c2920	-0.076250315
151	0x3d44bb46	0.04803016
152	0x3d4ff709	0.0507727
153	0xbd876be2	-0.06612374
154	0xbd0deebf	-0.034651514
155	0x3d65bfc8	0.0560911
156	0x3dd4f9e4	0.10399225
157	0x3a05eab1	0.0005108519
158	0x3d66993d	0.056298483
159	0x3dfa9197	0.122348
160	0xbe52a869	-0.20572056
161	0xbd92d52e	-0.07169567
162	0x3d2b7717	0.04186162
163	0x3cea2a32	0.028584573
164	0xbdef47a5	-0.11683587
165	0xbe44380b	-0.19162004
166	0xbc195684	-0.009359006
167	0x3e5a7edc	0.21337456
168	0xbd305127	-0.043046143
169	0xbd2b033e	-0.04175114
170	0xbb039daf	-0.0020083
171	0x3c9e2e17	0.019309087
172	0xbd9330fc	-0.071870774
173	0x3dd1f084	0.10250953
174	0xbc6aeeb7	-0.014339141
175	0x3d80ca37	0.062885694
176	0x3c9b0405	0.018922815
177	0xbc8c2931	-0.017109485
178	0xbe001e35	-0.12511523
179	0xbd90518f	-0.07046806
180	0x3e673e03	0.2258225
181	0x3d53ddce	0.0517252
182	0x3d6df90d	0.05809884
183	0x3d8b05b9	0.06788201
184	0xbcbf4b96	-0.023351472
185	0xbc42e317	-0.011894963
186	0x3c9c2cf6	0.019064408
187	0x3ba617be	0.0050687483
188	0x3d86e9f1	0.065875895
189	0xbd64d35b	-0.055865627
190	0x3d442539	0.04788706
191	0xbd2624f7	-0.040562596
192	0xbcc68d5c	-0.024237327
193	0x3de7ae89	0.11312587
194	0x3e53f110	0.20697427
195	0xbe0a269e	-0.13491294
196	0xbb9ec018	-0.0048446767
197	0x3daa371c	0.083112925
198	0xbba8b27c	-0.00514823
199	0x3ddf8501	0.1091404
200	0x3dab1c65	0.08355025
201	0x3d6df2c1	0.058092836
202	0xbd731ee4	-0.05935563
203	0xbe0c1dd6	-0.13683257
204	0x3d6173d7	0.055042114
205	0x3d504d9b	0.05085526
206	0x3d989dc7	0.07451969
207	0x3d79a076	0.060944043
208	0xbd0a84ea	-0.033818163
209	0x3df1f044	0.11813405
210	0xbc54e70a	-0.012994537
211	0x3ddf7082	0.10910131
212	0x3cf34831	0.02969751
213	0xbe02ffc9	-0.12792887
214	0x3dce1e64	0.1006439
215	0x3e13ee0c	0.14446276
216	0x3d9a07c9	0.07521016
217	0x3cc93299	0.02456026
218	0x39f3aaea	0.00046475913
219	0x3b0ea05a	0.0021763057
220	0x3c0dad2f	0.008647247
221	0xbe624d90	-0.220999
222	0xbdcb0308	-0.099126875
223	0x3ca5afd4	0.020225443
224	0x3dcec69a	0.10096474
225	0x3d830603	0.06397631
226	0x3db98061	0.090576895
227	0x3c92c4ec	0.017916165
228	0x3bd861ae	0.006603441
229	0xbb95c80b	-0.004570966
230	0x3dc39a15	0.09550873
231	0x3db2eb92	0.08736338
232	0x3d19f3df	0.03758609
233	0xbd6b19c0	-0.057397604
234	0x3d6c4d8f	0.057691153
235	0xbc9ac71b	-0.018893769
236	0x3d59488f	0.053047713
237	0x3e295a7f	0.16538428
238	0xbdb16739	-0.08662266
239	0xbdcf9943	-0.10136654
240	0x3bc0694e	0.0058719283
241	0x3cb1ba6a	0.021695334
242	0xbd7607a1	-0.06006587
243	0xbd25245c	-0.040317878
244	0xbd0def29	-0.03465191
245	0xbd332f59	-0.043746326
246	0xbc2f66f0	-0.010705695
247	0x3b21d5d3	0.00246941
248	0xbcca7625	-0.024714539
249	0xbd717488	-0.058949023
250	0xbd23f3a2	-0.04002727
251	0xbe3127e9	-0.17300381
252	0x3d84fd59	0.06493635
253	0x3e19f032	0.15033033
254	0xbd4b1807	-0.04958346
255	0xbdb655a1	-0.08903051

network_body._body_endoder.seq_layers.2.bias f4 [256]
0	0x38939ceb	7.0387345e-05
1	0xba92a436	-0.0011187855
2	0x3a380270	0.0007019406
3	0xbc4cb19f	-0.01249352
4	0x3a885741	0.001040198
5	0xbaf4936b	-0.0018659657
6	0x3a5ce107	0.00084258657
7	0x39d02953	0.0003970364
8	0xbc208fb6	-0.009799888
9	0xbc7a31d4	-0.015270669
10	0xbafc0aba	-0.0019229271
11	0x3a7600bb	0.0009384264
12	0x3c791d6f	0.015204771
13	0xbbb7d772	-0.0056104
14	0xbb7b6379	-0.003835885
15	0x3a925c33	0.0011166394
16	0x3b0b7898	0.0021281596
17	0xbc8383d0	-0.016054064
18	0x3b76b1c5	0.003764258
19	0xbc0fc0ae	-0.008773966
20	0x3ac41c66	0.0014962077
21	0xbcd1d362	-0.02561349
22	0x3d29595d	0.04134499
23	0x3bb08c31	0.005387806
24	0x3c1c53a3	0.009541425
25	0xbca1aeb8	-0.019736633
26	0xbc600c69	-0.013674834
27	0xbb2577a2	-0.0025248309
28	0xbc388f47	-0.011264629
29	0x3ca7e5f6	0.020495396
30	0x3bf889c2	0.0075847814
31	0xbcc557fe	-0.02408981
32	0x3ab5d6d6	0.001387323
33	0xbb152dd8	-0.002276292
34	0xbbd77edc	-0.006576402
35	0xbc915869	-0.017742353
36	0x3c2cb109	0.010540255
37	0xbc1b61c9	-0.009483763
38	0xbca53aae	-0.020169582
39	0xbac53b55	-0.001504759
40	0x3c0a58ec	0.008444052
41	0x3ceee7f6	0.029163342
42	0x3c99b275	0.018761853
43	0xbce7fa64	-0.028317638
44	0xbac540e0	-0.0015049241
45	0xbb83e112	-0.004024633
46	0xbc988dd9	-0.018622326
47	0x3cddcb77	0.027074559
48	0xbc283d93	-0.010268587
49	0x3bdace60	0.006677434
50	0x3b86a91a	0.004109514
51	0xbc8e460f	-0.01736739
52	0x3cae741f	0.021295605
53	0x3d050ff3	0.032485913
54	0xbc8e6d28	-0.017386034
55	0x3c6d495c	0.014482822
56	0xbc8287c8	-0.015933886
57	0x3b2066ed	0.002447541
58	0xbb122e4a	-0.0022305422
59	0x3975fc79	0.00023459074
60	0x396d353c	0.00022621913
61	0x3be96332	0.0071224207
62	0xbc1182f2	-0.008881317
63	0x3c562886	0.013071185
64	0xbc518b56	-0.012789568
65	0xbc7cdcc1	-0.015433491
66	0xbc796bb0	-0.015223429
67	0xbbf2a0e3	-0.007404433
68	0xba0dcbe3	-0.00054091046
69	0xbc7ca83a	-0.015420968
70	0xbc1caf1b	-0.009563233
71	0xbc12b875	-0.008955111
72	0xbc230eec	-0.009952288
73	0xbc4c3d75	-0.012465824
74	0xbbda8a6e	-0.006669334
75	0x3c60fc26	0.013731992
76	0xbc0cc66b	-0.008592228
77	0xbc6ada47	-0.014334268
78	0xbcef1dc5	-0.029189
79	0x3cab7e80	0.020934343
80	0xbbc9b0dc	-0.0061551165
81	0x3b9607ab	0.004578551
82	0x3c6f5c25	0.014609371
83	0x3b8d3c37	0.0043101567
84	0x3c7161ec	0.014732819
85	0xbc99b4d1	-0.018762978
86	0xbc14036d	-0.00903402
87	0x3bd2dfb9	0.006435361
88	0xbbc80fd6	-0.0061054034
89	0xbc41a74e	-0.011819674
90	0xbb80dce6	-0.003932583
91	0x3b68749c	0.0035469895
92	0x3c535a57	0.012899957
93	0x3c8b3d20	0.01699692
94	0xbc9b0cd5	-0.018927017
95	0xbbc9a365	-0.0061535113
96	0xbcf146f6	-0.029452782
97	0x3cca87a2	0.024722878
98	0x3c332095	0.010933061
99	0xbc850252	-0.016236458
100	0xbc83bd78	-0.016081557
101	0xbc232a67	-0.00995884
102	0x3b79cb79	0.0038115664
103	0xbbd81f7a	-0.006595549
104	0xbba02212	-0.004886874
105	0x3be78c09	0.007066254
106	0xba46facc	-0.0007590472
107	0xbc80f3b8	-0.015741214
108	0x3b9b4d61	0.004739449
109	0xbca1c969	-0.01974936
110	0xbc260848	-0.01013381
111	0xbc50a50e	-0.012734665
112	0x3b3a7f40	0.0028457195
113	0xbb778fc8	-0.003777491
114	0x3cbfbcf0	0.023405522
115	0xbc256395	-0.010094543
116	0xbbc72287	-0.006077114
117	0xbb688af7	-0.003548322
118	0xbbca710b	-0.0061780266
119	0xbbdf4cfa	-0.0068145962
120	0x3b8a17be	0.004214256
121	0xbc52a92a	-0.012857715
122	0x3cdf66f5	0.027270773
123	0xbcb14d52	-0.021643315
124	0x3c0bff1c	0.0085447095
125	0xbc73007a	-0.014831657
126	0x3b557878	0.0032573026
127	0xbba92cea	-0.005162825
128	0xbc698592	-0.014253037
129	0xbc774667	-0.015092469
130	0xbb009839	-0.0019621982
131	0xbc7299b9	-0.014807158
132	0xbb89a2f5	-0.004200334
133	0xbc2c6894	-0.01052298
134	0xbb8c7876	-0.004286821
135	0x3b4e58ea	0.0031486102
136	0x3c48c3c0	0.012253702
137	0xbc4e49a1	-0.012590797
138	0xb95c2d32	-0.00020997672
139	0x3c454590	0.012040511
140	0x3c49e4fe	0.012322662
141	0xbc014f65	-0.007892464
142	0xbbd2dc11	-0.0064349254
143	0xbc8c0845	-0.017093787
144	0xbc504526	-0.012711799
145	0xbbcb1501	-0.006197572
146	0x3c142cdf	0.009043901
147	0xbbe4afb4	-0.0069789533
148	0x3b7b5026	0.0038347333
149	0xbc6cc0cc	-0.014450263
150	0xb9880c5a	-0.00025949144
151	0xbcb0dd22	-0.02158982
152	0xbcbc6722	-0.022998396
153	0xbca83c82	-0.020536665
154	0x3be92a30	0.007115625
155	0x3ca7f59c	0.020502858
156	0xbcbe77ae	-0.023250427
157	0xbc88fa32	-0.016720865
158	0xbcb00dd0	-0.021490961
159	0x3b3ad46e	0.0028507966
160	0xbc5edd07	-0.013602502
161	0x3cfed7a1	0.03110868
162	0xbb3068e3	-0.0026917986
163	0x3c0036cd	0.0078255655
164	0xbba293d9	-0.0049614725
165	0xbc5db556	-0.013532003
166	0xbc7aaa79	-0.015299433
167	0xbd21e8d6	-0.03952869
168	0xbb2c5cb5	-0.0026300375
169	0x3c3ee5f0	0.011651501
170	0xbc0b8889	-0.008516439
171	0xbc98d349	-0.018655436
172	0x376af7c5	1.4005175e-05
173	0x3c7237d6	0.01478382
174	0xbb998622	-0.0046851793
175	0xbc23ccee	-0.0099975895
176	0xbc928344	-0.017884858
177	0xbbb7d6d1	-0.005610325
178	0xbc0413c2	-0.008061351
179	0x3c73118b	0.014835726
180	0xbc349873	-0.011022675
181	0x3cebad82	0.028769258
182	0xbc7880a3	-0.015167388
183	0x3c16c5ad	0.009202403
184	0x3bb03897	0.00537784
185	0x3cb8a5a5	0.022539923
186	0xbca6e1e1	-0.02037138
187	0xbcb5a53c	-0.022173516
188	0x3c190152	0.009338694
189	0xbc17790b	-0.0092451675
190	0xbb0d96e8	-0.002160484
191	0xbc13f3a3	-0.0090302555
192	0xbc879262	-0.016549293
193	0x39f10e4f	0.00045977763
194	0xbc080334	-0.008301545
195	0x3c9899ee	0.018628087
196	0xbb47b967	-0.0030475499
197	0xbae7929d	-0.0017667596
198	0x3c4ec667	0.012620545
199	0xbba3c805	-0.0049982094
200	0xbbfdbeae	-0.007743678
201	0xbb84bea2	-0.0040510455
202	0x3c6550af	0.013996287
203	0xbc5ff114	-0.013668317
204	0xba26ec36	-0.00063675956
205	0xbc3d7e7d	-0.011565802
206	0xbb8a08a4	-0.004212456
207	0x3c8eb743	0.01742137
208	0xb9c9cf9a	-0.00038492383
209	0xbc546e08	-0.012965687
210	0x3c721036	0.014774373
211	0x3c985652	0.018595848
212	0x3c7c3573	0.015393603
213	0xbac1a678	-0.0014774343
214	0xbc956bdf	-0.018239914
215	0xbc69d244	-0.014271323
216	0x3c3ba4ca	0.011452863
217	0xbc447c1c	-0.011992481
218	0xbca339b6	-0.01992498
219	0xbc6a346d	-0.014294726
220	0xbbcb4b8d	-0.0062040747
221	0x3d3ff5da	0.04686532
222	0xbca452a4	-0.020058937
223	0x3ba85f40	0.005138308
224	0xbb131dc3	-0.002244816
225	0xbb1701a4	-0.002304175
226	0x3ced73f1	0.02898595
227	0x3cabe758	0.020984337
228	0xbae90d81	-0.0017780514
229	0xbc7e71e9	-0.015530088
230	0xbc9bcdc6	-0.019019019
231	0xbc3263ab	-0.0108880205
232	0xbc8e9bc4	-0.01740826
233	0xbc6b49dd	-0.014360872
234	0x3ca85085	0.020546207
235	0xbc537d0e	-0.012908233
236	0xbb59a804	-0.0033211717
237	0x3bac2245	0.0052531087
238	0xbb918176	-0.004440482
239	0x3c965681	0.018351795
240	0x3c9ce534	0.019152261
241	0x3c8315a7	0.016001536
242	0xbc02e93e	-0.00799018
243	0xbabfabd7	-0.0014623356
244	0xbbf13217	-0.0073607075
245	0xbb9e47cd	-0.0048303367
246	0xbc0c10cc	-0.008548927
247	0xbc21f489	-0.009884962
248	0xbc2d2065	-0.0105668055
249	0x3d32ccad	0.043652225
250	0x3c344444	0.011002604
251	0x3c90e6bb	0.017688146
252	0xbc1a4859	-0.009416663
253	0xbc31f365	-0.010861252
254	0x3b96afdb	0.0045986003
255	0xbc9272fa	-0.01787709

network_body._body_endoder.seq_layers.2.weight f4 [256, 256]
0	0xbc8b303d	-0.016990775
1	0xbd211114	-0.039322928
2	0xbdfff737	-0.12498324
3	0xbda85b47	-0.08220535
4	0xbd7d4c61	-0.06184042
5	0xbd99d928	-0.075121224
6	0xbdd22bbd	-0.10262249
7	0xbd50225b	-0.050814014
8	0x3bfa0e52	0.0076311016
9	0xbcd45188	-0.025917783
10	0xbd24310b	-0.040085834
11	0x3dfc51d1	0.12320293
12	0x3d8d43f3	0.06897726
13	0xbd4a30b5	-0.049362857
14	0x3d874aaa	0.06606038
15	0x3dd5bc3f	0.10436296
16	0x3d7ede17	0.06222352
17	0x3d1ae3d6	0.037814938
18	0xbca2ed90	-0.01988867
19	0x3d4121d8	0.047151417
20	0xbd9423ca	-0.07233389
21	0xbd767541	-0.060170416
22	0xbe07da07	-0.13266765
23	0x3cc0785b	0.02349489
24	0xbe288f6d	-0.16460963
25	0xbbde79ae	-0.0067894077
26	0x3d2a01d0	0.041505635
27	0x3d6d0e1d	0.057874788
28	0xbdef008a	-0.11670025
29	0x3d98d31e	0.074621424
30	0xbd2dcf77	-0.042434182
31	0x3d724b82	0.05915404
32	0xbde690d5	-0.11258093
33	0x3d8e1c1a	0.06938954
34	0x3e1d64a7	0.15370427
35	0xbd7c66dd	-0.061621536
36	0xbcb2dd67	-0.021834088
37	0x3cd49ca9	0.025953608
38	0xba7a9059	-0.00095582526
39	0x3cec3fa7	0.028838946
40	0xbd6d97f5	-0.058006246
41	0xbcd0ff3f	-0.025512336
42	0xbd754892	-0.05988366
43	0xbdad6923	-0.08467319
44	0xbc2a5593	-0.010396379
45	0x3cf46cf5	0.029837111
46	0xbc51579c	-0.012777235
47	0x3d785479	0.060627434
48	0xbdacbaaa	-0.08434041
49	0x3dfc5468	0.12320787
50	0xbdcbc113	-0.09948935
51	0xbd42ab87	-0.047526862
52	0xbd376bea	-0.04478065
53	0x3d84b172	0.064791575
54	0x3e290d83	0.1650906
55	0xbdb1f426	-0.08689146
56	0x3d047eb5	0.0323474
57	0xbd40b51b	-0.047047716
58	0xbd2849c8	-0.04108599
59	0x3db4d9e7	0.08830624
60	0xbd3b804e	-0.045776658
61	0x3d4cc69a	0.04999409
62	0xbd3fc7d9	-0.04682145
63	0x3dbbf57c	0.09177682
64	0xbd8b861a	-0.06812687
65	0x3c0fe806	0.008783346
66	0xbd5effd7	-0.054443207
67	0xbbf261bc	-0.0073969048
68	0xbc5460be	-0.012962518
69	0x3d309cbf	0.043118235
70	0xbbb34d47	-0.0054718587
71	0x3e011c09	0.12608351
72	0xbc398636	-0.011323502
73	0xbd8f549c	-0.0699856
74	0xbcd08af4	-0.025456883
75	0xbd29bcbb	-0.041439753
76	0xbde4f108	-0.111787856
77	0x3c81c6a0	0.015841782
78	0xbdb79a31	-0.089649566
79	0xbc3a527d	-0.011372206
80	0xbdfe425e	-0.12415002
81	0xbcbac76e	-0.022800174
82	0x3c05cc0c	0.008166324
83	0xbb89b060	-0.0042019337
84	0xbd5a7b4b	-0.053340238
85	0x3d30bbef	0.043147977
86	0x3c835bc7	0.016034974
87	0xbd1a97cd	-0.037742425
88	0x3d80fc3c	0.0629811
89	0x3c6177fa	0.013761515
90	0x3d5d76db	0.054068428
91	0xbdbd4984	-0.092425376
92	0xbd9f24cf	-0.077706926
93	0x3da044ab	0.078255974
94	0xbde7a749	-0.11311204
95	0xbd3bcdee	-0.045850687
96	0xbdaf1305	-0.085485496
97	0x3cf16351	0.029466303
98	0xbd37793d	-0.044793356
99	0x3c6ad157	0.014332137
100	0x3d88277c	0.06648156
101	0x3db9d881	0.09074498
102	0xbcdb642f	-0.02678117
103	0xbc52cab2	-0.012865709
104	0xbd99ec6d	-0.07515798
105	0xbcd0dea6	-0.025496792
106	0xbd159986	-0.036523364
107	0x3cc5deaf	0.024154035
108	0xbe22bb01	-0.15891649
109	0x3ceb2f43	0.02870906
110	0x3cb4bab7	0.022061689
111	0xbcdc4e51	-0.026892813
112	0xbd8999d5	-0.06718794
113	0x3d903ff5	0.07043449
114	0xbbd94143	-0.0066300943
115	0xbcb32d99	-0.021872329
116	0xbdaf35fb	-0.08555218
117	0x3e275fb6	0.16345105
118	0xbdcf4771	-0.10121048
119	0xbd045aa4	-0.032313004
120	0xbcf30e45	-0.02966989
121	0x3bfcc105	0.0077134394
122	0xbdf59e93	-0.11993136
123	0xbc3789d3	-0.011202293
124	0xbd6916db	-0.056906562
125	0xbe13dcfc	-0.14439768
126	0xbd780781	-0.06055403
127	0x3cbe49f6	0.023228627
128	0xbd0c40ee	-0.03424161
129	0xbd858ab3	-0.065205954
130	0xbd88a372	-0.066718
131	0xbbfe4f02	-0.0077608833
132	0x3b8a518c	0.004221147
133	0xbbc14d18	-0.005899083
134	0x3d6965c4	0.056981817
135	0xbc02bb71	-0.00797926
136	0xbbf44f0f	-0.0074557136
137	0x3da9764f	0.08274519
138	0xbc035739	-0.008016401
139	0xbb191b39	-0.0023362173
140	0x3ca9df05	0.020736227
141	0xbd8000c8	-0.06250149
142	0xbdac1181	-0.08401776
143	0xbc24c16b	-0.01005588
144	0x3dbd471b	0.09242078
145	0xbbb94181	-0.0056535606
146	0xbddb9c0d	-0.10723124
147	0x3dc4df5f	0.09612917
148	0xbd468266	-0.0484642
149	0xbcb8b5f1	-0.022547694
150	0x3d246fc7	0.04014566
151	0x3e6579ba	0.22409716
152	0xbdf0a588	-0.117503226
153	0xbd4ec55c	-0.050481185
154	0x3c3af276	0.011410346
155	0x3c1ad2f7	0.009449712
156	0x3c7f46f5	0.015580882
157	0xbd63a69b	-0.05557881
158	0x3cc9117a	0.024544466
159	0x3d2ee4db	0.042698722
160	0xbdde9c9a	-0.10869713
161	0xbcd24cd1	-0.025671395
162	0x3dfd22e1	0.12360168
163	0x3bc81116	0.0061055524
164	0x3dd2ffe9	0.10302717
165	0xbd439bab	-0.04775588
166	0xbddf0ba1	-0.1089089
167	0x3cf83c71	0.030302258
168	0x3ba27bab	0.00495859
169	0x3c922358	0.017839119
170	0xbd145278	-0.03621146
171	0xbc9427a3	-0.018085307
172	0xbd247707	-0.040152576
173	0xbd5e0d24	-0.05421175
174	0x3d6d60d8	0.057953686
175	0xbcda4c30	-0.026647657
176	0x3d04a9af	0.032388385
177	0x3df55c68	0.11980516
178	0x3d2fde42	0.04293657
179	0x3cdd5216	0.02701668
180	0xbd24b533	-0.040211868
181	0x3d91b972	0.07115449
182	0x3c7fdc3b	0.015616472
183	0x3b295752	0.00258394
184	0x3d508800	0.05091095
185	0x3c9f4247	0.019440783
186	0xbdd9ebd5	-0.106406845
187	0xbcb29368	-0.021798804
188	0xbc7afb8c	-0.0153187625
189	0xbcd0db6a	-0.02549525
190	0xbddabe05	-0.106807746
191	0x3d52b07a	0.051437832
192	0x3dbc6cd5	0.092004456
193	0xbddd5460	-0.10807109
194	0xbd7ace20	-0.061231732
195	0xbca88da9	-0.020575361
196	0x3d423958	0.04741797
197	0x3db9b4f0	0.09067714
198	0xbe113dfb	-0.141838
199	0x3a1d84db	0.0006008872
200	0xbbc67996	-0.0060569746
201	0x3c575249	0.013142177
202	0xbd0b0c5e	-0.03394734
203	0x3d02d730	0.0319435
204	0x3d5b6522	0.053563245
205	0x3c546eb9	0.012965851
206	0x3e03f392	0.12885883
207	0x3cfa1f7a	0.030532587
208	0x3d1776a2	0.03697837
209	0x3c1ce164	0.009575222
210	0xbd48139b	-0.048846822
211	0xbdccd704	-0.100019485
212	0xbb7e387c	-0.0038790992
213	0x3c14bd73	0.009078371
214	0xbd69c844	-0.057075754
215	0xbd9b14ae	-0.07572304
216	0x3d0745bc	0.03302549
217	0x3d7b10ef	0.061295446
218	0x3d4d8333	0.05017395
219	0xbdc6f2ae	-0.09714256
220	0x394df9a0	0.00019643316
221	0x3cd0b447	0.025476588
222	0xbe0bdd58	-0.13658655
223	0x3a7ba818	0.0009599938
224	0xbd84faf9	-0.06493182
225	0xbc964773	-0.018344617
226	0xbd885945	-0.06657652
227	0xbc9a9b92	-0.01887301
228	0xbdc674c6	-0.096902415
229	0x3d3997db	0.045310836
230	0x3d4a4a58	0.049387306
231	0xbcad496d	-0.021153176
232	0xbd1b03fe	-0.037845604
233	0xbe0fe969	-0.14053883
234	0x3cb5f802	0.022212986
235	0xbcf72a6d	-0.030171597
236	0xbd6f257d	-0.05838536
237	0x3d3a4a6d	0.045481134
238	0x3d561b01	0.052271847
239	0xbb119bfb	-0.0022218216
240	0xbd82ac93	-0.06380572
241	0x3c03f459	0.0080538625
242	0xbda94888	-0.08265787
243	0x3d08984b	0.033348363
244	0x3d141ff7	0.036163297
245	0xbc34d763	-0.01103768
246	0xbca640bc	-0.02029454
247	0xbda4c9dc	-0.08046314
248	0xbd9e0e70	-0.077175975
249	0xbd5f1d81	-0.054471496
250	0xbafdf38d	-0.0019374952
251	0xbd01d5c0	-0.03169799
252	0x3d16599c	0.036706552
253	0x3ae933cd	0.0017791927
254	0xbc55b8d2	-0.013044553
255	0xbd3c7b30	-0.04601592
